Examples/best_model.pth (torch, 59975 bytes, 10 tensors)

fc1.weight f4 [128, 21]
000000 9e 89 d8 be df 9e 33 be 74 b8 4f 3d 53 89 b2 3c
       -0.42292494 -0.17541073 0.050713018 0.021793997
000010 cd 54 1e 41 f3 b2 0e c1 fc 57 86 c1 38 e7 1b 41
       9.895703 -8.918689 -16.792961 9.74395
000020 69 46 07 41 a4 b2 c4 40 d2 44 93 be 18 92 04 c1
       8.45469 6.1468067 -0.28763443 -8.285667
000030 c5 82 4e c1 cd 88 cc 40 d6 10 7e 40 95 8e 43 3e
       -12.906926 6.3916993 3.9697776 0.1909736
000040 f7 a4 d1 be a6 af 38 bd 40 3e 8b 3e 01 1a ff 3c
       -0.4094617 -0.045089386 0.2719593 0.03114033
000050 37 7c 92 bf 16 12 5b be 5c 41 fe bb 63 db a6 3c
       -1.1444157 -0.21393618 -0.0077592563 0.020368284
000060 58 fe ad 3c 50 10 8f 3f 25 ec 9e bf 64 b5 23 c0
       0.021239445 1.1176853 -1.2415816 -2.5579462
000070 9a a6 2a 41 6b 12 e1 40 ec 02 11 40 24 90 18 c1
       10.665674 7.0334983 2.2658033 -9.535191
000080 a3 ee 61 c1 b7 e2 08 c1 8b 17 e7 40 74 8b d8 40
       -14.120761 -8.55535 7.221624 6.767023
000090 59 d9 63 c0 b6 68 1e bd a0 ba 0f 40 17 fa 8b 3f
       -3.5601408 -0.03867408 2.2457657 1.0935696
0000a0 c8 72 21 bf 81 5e fa bf da 6a fa bc c0 fa d9 bd
       -0.6306577 -1.956009 -0.030568529 -0.1064353
0000b0 7b 1c 7b bd 36 41 31 bd cf ab 54 3d 18 83 48 bd
       -0.061306458 -0.04327508 0.051921662 -0.048953146
0000c0 95 8e 0a bd 40 bb 65 bd 25 50 e1 bd 8c a0 4b bd
       -0.033827383 -0.05608678 -0.110016145 -0.049713656
0000d0 31 06 26 3c cd a1 cb 3c d0 1b 93 3d 01 24 52 3e
       0.010133312 0.024857426 0.07183039 0.20521547
0000e0 64 b4 16 3e 11 88 5e be 3d b6 cd 3d 6b cb 4f be
       0.14717251 -0.21731593 0.10044525 -0.20292442
0000f0 c6 99 c4 bd e5 dd 1f 3c 3a fa 19 3d 6c b3 7f bd
       -0.095996425 0.009757494 0.03759215 -0.06242697
000100 95 29 35 3e 26 86 2e bc fd 31 0f 3d c0 02 7e 3d
       0.17691644 -0.010652101 0.034959782 0.06201434
000110 5a b4 cf bd 96 6e 9c 3d 0d 8c 11 3d 42 4b 14 3d
       -0.10141821 0.0763828 0.035533953 0.036204584
000120 32 d9 ae bd 2e 99 13 be 58 ff 86 3d ce 25 b7 3c
       -0.085375205 -0.14413902 0.06591672 0.022356894
000130 e9 19 a2 bd 8d 36 19 be 2a 24 2a be 57 39 e2 bd
       -0.07915098 -0.14962216 -0.16615358 -0.11046093
000140 7f 05 fc bd 0e 2c ea bc e0 98 05 3e 25 b0 16 3e
       -0.12305736 -0.02858546 0.13046598 0.14715631
000150 ad ea bb 39 36 54 cc 3d 28 71 a1 3b 4c f5 97 3d
       0.00035842267 0.099769995 0.0049268194 0.074198335
000160 83 11 6f be c4 a3 25 3e ed 6b 4a bd 01 d0 1e be
       -0.23346524 0.16175753 -0.049419332 -0.15509035
000170 88 72 64 bd 6e ae 2f be 65 48 09 bd f1 fb 48 be
       -0.055773288 -0.17156383 -0.033516306 -0.19627358
000180 14 f1 3d be 94 5c 34 be dc 0f ef 3d af 7d 2f be
       -0.18548995 -0.17613441 0.11672947 -0.17137788
000190 69 8f 0d be da 0f 13 3d 18 48 84 bd d3 1f af bd
       -0.13824238 0.03590379 -0.06459063 -0.08550992
0001a0 b3 93 61 bd 29 79 60 be 91 d8 b9 bc 47 c8 e2 3b
       -0.055072498 -0.21921219 -0.022686275 0.0069208476
0001b0 9f 43 9a bc 08 9a 28 bf 96 2e 26 3f 46 79 cb 3e
       -0.018831072 -0.65860033 0.64914834 0.39740962
0001c0 b9 22 1b bf c0 fe 99 c0 a8 ce 84 c0 65 3d 8c 40
       -0.6059986 -4.8123474 -4.1502266 4.3824944
0001d0 81 82 0f 41 59 9f 39 41 a3 45 36 c1 b4 70 b3 c0
       8.969361 11.601403 -11.392001 -5.6075077
0001e0 4e b7 05 41 9f a4 d8 3f bb e0 7f c0 7d a8 4d bd
       8.357252 1.6925238 -3.9980915 -0.05020951
0001f0 0c 78 ea 3e d9 d9 0b c0 38 f5 02 40 63 f3 2e c1
       0.45794713 -2.1851714 2.046217 -10.934421
000200 2f 42 16 3f 6e cc 1c bc ed 85 c4 bd 88 14 84 3f
       0.5869474 -0.009570224 -0.09595857 1.0318766
000210 a6 dc 58 bf c4 9c bb bf 0c b1 0f 40 36 1d 71 40
       -0.8471168 -1.4657216 2.245181 3.767408
000220 31 5e db 3f f3 1e d4 bf 39 4e 8e bf d5 98 52 3e
       1.713812 -1.6571945 -1.1117622 0.20566113
000230 94 ed 99 3d 73 71 66 c0 00 48 16 3e dc 55 09 40
       0.075160176 -3.6006744 0.14675903 2.1458654
000240 d9 e0 b6 3e b2 0d 93 be 56 e8 42 be 05 4e 80 3d
       0.3571842 -0.28721386 -0.19033942 0.06264881
000250 40 df 56 bd 61 2d 82 3d 36 b0 07 be bb a2 4c 3e
       -0.052459 0.063563116 -0.13250813 0.19983952
000260 48 da 9e 3d 0d eb 1c be ba a7 07 3e c6 2e ed bd
       0.077564776 -0.1532404 0.13247576 -0.11581187
000270 d7 dc b2 3d 49 4e 14 be b6 57 18 3e 69 91 ca bd
       0.08733528 -0.14482988 0.14877209 -0.09891016
000280 32 f1 71 3d 47 87 36 be 02 df 1e be 49 d1 09 3e
       0.059067912 -0.17825042 -0.15514758 0.13458742
000290 62 42 0f be 64 94 73 3d 6a 5b d7 bd 5d f8 3c be
       -0.13990167 0.05946769 -0.10515483 -0.18454118
0002a0 4a d1 31 3e ca ce 33 3e 37 81 ea bd ac 1c 38 be
       0.17364994 0.17559353 -0.11450427 -0.17979687
0002b0 12 7f 21 be 43 9c 35 be cb 46 4c be 59 b6 c9 3d
       -0.1577113 -0.1773539 -0.1994888 0.09849233
0002c0 63 8e eb bd 97 d1 05 3e 14 f6 e8 3b a9 81 56 3b
       -0.115017675 0.13068233 0.007109413 0.0032731092
0002d0 4a 16 45 3e f5 e6 1d bd 54 4c 30 be e5 12 3e be
       0.19246784 -0.038550336 -0.17216617 -0.18561895
0002e0 22 9d 1e be ea 95 45 3e e5 fb 50 be 8c 44 83 bd
       -0.15489629 0.19295469 -0.2040859 -0.06409559
0002f0 45 62 2d 3e b7 9e 6e c0 f5 25 bc bd bd 3b 0d bf
       0.16932018 -3.7284372 -0.09186927 -0.5516928
000300 cc 3c 43 bd b3 dc 42 3f 4d d5 9e 3e 49 fd e7 3e
       -0.047665402 0.7611801 0.3102211 0.4531043
000310 fa bc 09 bf 62 0d cd bf c7 3b 3b c0 07 a9 f4 3e
       -0.5380398 -1.6019709 -2.9255235 0.47785208
000320 18 d1 f4 3f f2 ff be 3f 7b c6 5c bf 47 41 41 c0
       1.912631 1.4921858 -0.8624036 -3.0196092
000330 cd 56 f3 bf 68 45 6f bf fe 94 67 3f d4 e8 89 3e
       -1.9010864 -0.9346528 0.9046172 0.26935446
000340 65 49 61 3d c0 ff 0a 3f d1 97 a7 3d 17 70 2b 3c
       0.055001635 0.54296494 0.081832536 0.010463736
000350 50 89 9e bc c7 bc e9 3d 41 60 de 3d 88 81 f9 3d
       -0.019352585 0.114129595 0.10858203 0.12182909
000360 55 69 43 bb 2a e2 3e be 8f cf 63 be d9 be 64 be
       -0.0029817421 -0.18640962 -0.22247146 -0.22338428
000370 e7 cf e7 bc 8a 40 ea 3d a0 a9 d1 bc 54 80 c6 3b
       -0.028297378 0.11438091 -0.025593579 0.0060577784
000380 24 b5 7b be e4 f0 53 be 79 2a 79 be f3 3f 59 be
       -0.24580818 -0.20697361 -0.24332608 -0.21215801
000390 c8 c3 e2 bd 88 88 5f be 0a 52 b3 bd f9 cd 15 be
       -0.110724986 -0.21829426 -0.08755882 -0.14629354
0003a0 48 e6 14 be 83 9d 3b be 44 4d 29 bd a4 f1 1b be
       -0.1454097 -0.18321805 -0.041333452 -0.15228897
0003b0 59 de b4 3b 0f 6b 13 3e 25 19 27 3d ff 59 0d 3e
       0.00551967 0.14396308 0.040795464 0.13803862
0003c0 9e 21 90 bd 20 23 97 3b b2 3b aa bc a5 94 5b 3e
       -0.07037662 0.0046123415 -0.020780418 0.21443422
0003d0 04 ce 43 3e c3 b1 59 be 48 7c b1 bd de 50 4c 3d
       0.19121557 -0.21259217 -0.08666283 0.04988181
0003e0 60 04 3c bd 64 84 32 bd 68 4a 4f be e7 c7 34 be
       -0.04590261 -0.04358329 -0.20243227 -0.17654382
0003f0 f7 c1 a6 be fb 89 f2 3d bb 29 87 3d 53 9b 63 3d
       -0.32569858 0.11842724 0.06599756 0.05556805

fc1.bias f4 [128]
000000 b5 bb 33 c0 15 4d 9e 40 1a 06 be bd 19 79 1a be
       -2.8083317 4.9469094 -0.092785075 -0.15085258
000010 93 ad 75 3b 35 9d 22 c0 76 ba 94 bf cc a7 9d bd
       0.0037487491 -2.5408452 -1.1619403 -0.0769802
000020 0d 2b 07 be db 38 03 41 89 9d 1a 3d 6e bc d2 bc
       -0.13200016 8.201381 0.037747893 -0.025724616
000030 e5 36 3a c1 cd 34 39 41 fb 67 e2 bd c9 93 ef 40
       -11.638402 11.575391 -0.11054989 7.48679
000040 eb 29 d8 bd 76 6b f9 40 51 71 f3 40 f3 e8 25 c1
       -0.1055487 7.794368 7.6075826 -10.369372
000050 b1 d6 05 3d cb 2a 24 41 2a 1d 24 c1 02 f5 97 bd
       0.03267545 10.2604475 -10.25712 -0.074197784
000060 d5 61 5b be 91 0b 1d c0 aa d8 98 c0 97 be 70 40
       -0.21424039 -2.453831 -4.7764482 3.7616327
000070 28 ba 77 40 8c 00 35 c1 22 d4 4b be 49 f1 b6 bf
       3.870737 -11.3126335 -0.19905141 -1.4292384
000080 b0 f7 b3 40 e6 a9 83 40 5d b7 e1 3f ec d3 23 40
       5.6239853 4.1144896 1.7634083 2.5598097
000090 e7 5a 7e c0 98 24 06 be 26 60 e2 c0 af ee 4b 41
       -3.9742982 -0.13099897 -7.074237 12.745772
0000a0 2d d2 55 bd 42 d1 42 be 5d 9f d1 bd de d2 12 3e
       -0.052202392 -0.19025138 -0.10235474 0.14338252
0000b0 9b 2e d4 bd 6f 1c ce 3d 93 ba 00 3a a5 5e 87 c0
       -0.10360452 0.10064017 0.0004910614 -4.2303033
0000c0 c7 2d dc bf aa 35 d6 3d fb c0 09 c0 99 04 0f c0
       -1.720147 0.10459454 -2.1524036 -2.2346556
0000d0 dc 21 df c0 69 38 90 bd 2e 3c 93 bf 8c e5 18 be
       -6.972883 -0.070420094 -1.150274 -0.14931315
0000e0 5a 4d 83 40 77 08 e1 be c2 c2 bf 3f 08 49 96 c0
       4.1031923 -0.4395177 1.498131 -4.696415
0000f0 86 67 4f be 26 8d 59 be 54 ac 0d 3f d1 84 84 c0
       -0.20254335 -0.2124525 0.55341077 -4.141213
000100 fd 20 3c be 88 1a 55 bd eb 67 b9 c0 9d ef bc 3d
       -0.18371959 -0.052027255 -5.7939353 0.0922539
000110 2b 2a 06 be a8 3f f2 be 15 f9 76 be 82 97 23 c0
       -0.13102023 -0.4731419 -0.24118455 -2.5561223
000120 90 4f a2 c0 ae fd 5d c1 9e e4 66 c0 61 82 c9 40
       -5.072212 -13.8744335 -3.6077037 6.2971654
000130 01 75 2a 40 2d 0a ee 3d f6 84 92 c0 ac 87 a7 bb
       2.6633914 0.116230346 -4.5787306 -0.005112609
000140 e5 3d 1e 40 f9 66 1b 40 8a a4 5a be 25 0f 02 3c
       2.4725277 2.42816 -0.21351829 0.007938181
000150 e1 44 d8 3c a6 cf da c0 a8 55 03 40 1b 91 73 41
       0.026400032 -6.8378477 2.052103 15.222926
000160 70 fa bd 40 08 75 a2 c0 26 fb e5 3e 25 92 a3 3d
       5.936821 -5.076786 0.44918174 0.07986859
000170 3f 2b 26 3e b3 3f ab c0 41 69 44 c0 ed 5e ef 3d
       0.16227435 -5.351526 -3.0689242 0.116880275
000180 2e f2 e9 3f ae d1 cc 3e a8 c4 6e c0 7b 6f 50 c1
       1.8277032 0.40003723 -3.730753 -13.027217
000190 5e f9 8c 3d b7 fe 5e be 51 6e a3 40 c2 8c 03 be
       0.068835005 -0.21776854 5.1072164 -0.12846664
0001a0 0d b6 1c be 48 b8 a5 c0 23 bf d8 c0 1e d0 ed c0
       -0.15303822 -5.1787453 -6.773332 -7.431655
0001b0 0f 89 0b 3e 32 6e c1 40 cb 9f 3c 3f 87 0d 90 bd
       0.13626502 6.0447016 0.73681325 -0.0703383
0001c0 5b 47 c9 3e f6 f1 57 40 c9 65 ae 3f 81 e3 4c c0
       0.39312252 3.3741431 1.3624812 -3.2013857
0001d0 5c e6 9f c0 8b ba b0 bd 4d 54 4c 40 a8 87 b7 3f
       -4.99687 -0.0862933 3.1926453 1.4338274
0001e0 de da bf be a0 38 51 40 fb 1c 51 c1 35 2a 0a 40
       -0.3747167 3.269081 -13.069575 2.158826
0001f0 7c dc c2 3f a3 37 9f bf e3 5d e4 40 fb 9d dd bd
       1.5223536 -1.2438854 7.136461 -0.10821148

fc2.weight f4 [64, 128]
000000 6c f0 57 bc f9 1e 9c bd 94 80 cf 3c 1d cb d7 3c
       -0.01317988 -0.07623095 0.025329866 0.02634197
000010 46 1f 0c 3d f4 ca 88 bd 1a 90 83 bd a0 91 06 bc
       0.034209512 -0.06679335 -0.064239696 -0.008213431
000020 25 9f 83 3d b4 d6 f2 bb d0 98 5d 3d 30 91 ad 3d
       0.06426839 -0.0074108485 0.05410081 0.08474958
000030 c8 9e a4 bd fe 62 ab bd d1 fa 36 3d 86 30 71 bd
       -0.080380976 -0.08368491 0.04467279 -0.058884166
000040 0d 2a 8b 3c c0 bd 81 3c 3c 56 09 bd 50 33 64 bc
       0.016987825 0.01583755 -0.033529505 -0.0139282495
000050 cc 2d 26 3c d8 87 fd bd 3d 99 c2 3c 6a b5 57 bd
       0.010142755 -0.12379426 0.02375471 -0.052663244
000060 1a f2 a1 3d f9 a3 f9 3c d1 ac 86 3d 48 80 ab bd
       0.07907505 0.030473696 0.06575931 -0.08374077
000070 66 60 63 3b 76 1e 40 3c d3 b9 55 3d d0 a8 c6 3c
       0.003469491 0.011726012 0.05217917 0.024250418
000080 4e 82 c3 bc 61 8b 87 3d cb 81 86 bd f4 7d a0 bd
       -0.023865845 0.06618381 -0.06567725 -0.07836524
000090 55 b3 be bd f2 05 a9 bd 5a 4b 99 bd 26 91 0e 3d
       -0.093115486 -0.08253087 -0.07485075 0.034806393
0000a0 e3 1c a0 bd 24 a5 44 bd bf c6 dc bd dd 0b ad bd
       -0.0781801 -0.048009053 -0.10780095 -0.08449528
0000b0 81 aa b3 3d 7c 05 8c 3d 1c c6 99 3d 76 cb e9 3c
       0.087727554 0.068369836 0.075084895 0.0285394
0000c0 00 69 0c 3d ea 65 39 bd e0 68 9e bb 19 32 a0 bd
       0.034279823 -0.04526321 -0.0048342794 -0.07822055
0000d0 d2 0c 82 bd e6 fa 01 3d 7d 26 87 bd a0 5e 5a bb
       -0.063501015 0.031733416 -0.06599138 -0.003332056
0000e0 37 9b 27 3d 83 31 92 bd 1f e2 f8 bc 6e 05 8c 3c
       0.04091951 -0.0713835 -0.03038126 0.017092433
0000f0 38 8f 23 bd 1a 7e ba bc 96 5d 2b 3d 95 35 b2 bd
       -0.039931506 -0.022765208 0.041837297 -0.08701626
000100 d4 13 53 bd 1d d9 37 bc 1d 66 e2 bd 87 76 2f bd
       -0.05153258 -0.011221197 -0.11054633 -0.042837646
000110 7c a6 85 bd bd 5e 4c 3d 62 c5 ec 3c 50 18 d8 bd
       -0.06525895 0.049895037 0.028902713 -0.10551512
000120 0b 22 d3 bd 14 1e d4 bc 59 fa ad bd 8e 1c e7 3c
       -0.103092276 -0.025893249 -0.08495016 0.028211858
000130 f0 b3 fe bb bd 58 03 bc 67 8f a3 bd c8 06 3e 3c
       -0.007772915 -0.008016762 -0.07986336 0.011598296
000140 92 4c c9 3a ba 19 62 3c 2d 83 fc bc 22 21 9e 3d
       0.0015357903 0.013800079 -0.030824268 0.07721163
000150 c2 c1 3b 3c a9 54 98 bd cf 0f 54 3d 88 a5 f9 3b
       0.01145977 -0.07438023 0.05177289 0.00761861
000160 bc 5b dd bd 84 74 d6 bc 83 6b 85 3d 83 36 55 bd
       -0.108085126 -0.026178606 0.06514647 -0.05205394
000170 d2 0d dd bc 9a 19 ea bd 62 46 98 3c 3b f6 9b bd
       -0.02698413 -0.11430664 0.018588249 -0.07615324
000180 33 06 8f 3d eb 72 d5 bd 80 43 9d bd 46 58 eb 3c
       0.06983604 -0.104223095 -0.0767889 0.028728615
000190 d2 4e b3 bd d4 3f b7 bc a1 b8 0a 3a 3a 19 3f bd
       -0.08755268 -0.022369303 0.0005291794 -0.046654917
0001a0 2d 86 87 3d 45 04 e2 bc 07 6e 9e bd 4e e0 1e 3d
       0.06617389 -0.027589926 -0.0773583 0.038788132
0001b0 49 8a bd 3b 32 d3 5b 3c 51 a3 6c bd 6b 28 ac bc
       0.005784307 0.013417052 -0.05777294 -0.021015367
0001c0 78 93 18 bb 94 7c 38 bd 86 f4 a6 bc 59 cf ad bd
       -0.0023281258 -0.045040682 -0.02038027 -0.08486814
0001d0 f4 73 82 bd 80 7b db bb 85 f5 b3 bd cb 94 8a bd
       -0.063697726 -0.006698072 -0.087870635 -0.06766661
0001e0 89 2d 69 bd 63 e6 97 bd 44 0f 69 3d 3c a4 93 3d
       -0.05692819 -0.0741699 0.056899324 0.072090596
0001f0 b9 4e 03 bd 11 ce 6d bd 74 0d 98 bd 46 79 9b ba
       -0.032057498 -0.05805785 -0.07424441 -0.0011861704
000200 2d 99 0e be 8a 17 e9 bd 9f c7 8e 3d 14 cc cc bb
       -0.1392562 -0.11381443 0.069716685 -0.006249914
000210 9e 0f 94 bc b5 be 71 bd ac ec 95 3c 5e 38 07 bc
       -0.018073853 -0.059019763 0.01830133 -0.008253185
000220 11 b0 9e 3d 18 56 5c bc bb 00 19 3d 7d 44 a1 3d
       0.07748426 -0.013448261 0.037354212 0.07874391
000230 20 a3 36 bd 35 f0 eb bd 78 4f ff bc 50 43 a2 3c
       -0.044589162 -0.11520425 -0.031165823 0.019807488
000240 2d 02 f2 3c b6 fb 94 bd 1d 7f 52 bd ae c8 9c bd
       0.029542053 -0.072745726 -0.051390756 -0.07655464
000250 c1 d8 c1 3a 0a b5 56 bd b1 d6 1a 3c 5f a2 06 bc
       0.0014789329 -0.052418746 0.0094506005 -0.008217423
000260 ba 44 84 3d e6 49 8d bd e1 b5 66 3d a7 67 15 3c
       0.06458421 -0.06898861 0.056325797 0.009118951
000270 cd 89 68 3c b8 d7 ec 3c ab 0b 72 3d aa f8 eb bc
       0.0141930105 0.028911456 0.05909316 -0.028805096
000280 e3 fc 33 3d 76 52 05 3d 95 d0 bf bd ae f6 4d bc
       0.043942343 0.032549344 -0.09365956 -0.01257102
000290 3a 38 b1 bd 61 99 ad 3d 9b ca db bc ba d2 c9 bd
       -0.086533025 0.0847652 -0.026830008 -0.09854646
0002a0 43 41 40 bd 34 c1 42 3d 98 11 53 bd 4a 76 1e 3d
       -0.04693724 0.047547534 -0.05153045 0.038687028
0002b0 d0 82 35 3d 9a f8 8c bd 33 8a c6 3c ea 24 80 bd
       0.044314206 -0.068833545 0.02423582 -0.06257041
0002c0 85 69 3b 3d 8f dd 23 3d 48 1d 76 3d 7e 34 ab 3c
       0.04575493 0.040006217 0.06008652 0.020899054
0002d0 f8 bc 0d 3c 64 f4 cf 3b f7 34 d3 bd 4f 46 a4 3d
       0.008651011 0.0063462723 -0.103128366 0.08021223
0002e0 21 a2 f7 3c 94 23 97 bc 0e e3 e6 b9 a0 70 8c bd
       0.030228676 -0.018449582 -0.00044038187 -0.06857419
0002f0 fe cf 21 bc 13 8e a6 bd 6c 4a 94 bd a9 04 f3 bd
       -0.009876249 -0.08132567 -0.07240757 -0.11866123
000300 0c 5a 63 bd d8 18 92 bc 4b 23 08 bd 39 bc 96 bd
       -0.055505797 -0.017834112 -0.033236783 -0.073601194
000310 b3 41 71 bd 71 d7 21 3c da ee 9b 3c 99 46 c4 bd
       -0.058900546 0.009878025 0.019034792 -0.09583778
000320 ff 00 c6 3c c4 a1 ce 3b 96 da 59 bc bf b1 e8 bd
       0.024170397 0.006305905 -0.013296744 -0.113620274
000330 0b f3 40 bd 17 b6 ac 3c f1 7e c3 b9 8d dd 3a bd
       -0.047106784 0.021082921 -0.00037287877 -0.045621444
000340 da b1 b9 bd fc ab 0c bc 35 ae 54 bd 55 29 50 3d
       -0.090671256 -0.008585926 -0.05192395 0.050820667
000350 59 d6 66 3d e7 c5 3e bd 4a bc 6e bd 59 35 1e 3d
       0.05635676 -0.046575453 -0.058285035 0.038625095
000360 c3 27 7b bc 4d 70 6e b9 f4 23 04 3d 46 80 9b bd
       -0.015329304 -0.00022739284 0.03226085 -0.075928256
000370 33 99 11 bd 79 40 9c 3d 99 6c cf bc 2e ad 5e 3d
       -0.035546493 0.07629485 -0.025320338 0.054364376
000380 db 15 a9 bd 7b 33 b3 bd e8 6b fb bb 26 50 72 bd
       -0.08256122 -0.087500535 -0.0076727755 -0.059158467
000390 21 a4 7b 3d ce 41 07 bd a5 44 aa bd 37 9b 5e bd
       0.061435822 -0.03302174 -0.08313874 -0.054347243
0003a0 8e 7e b0 bc 0f 85 af b9 cc 9c 75 bb b6 75 cb bd
       -0.021544721 -0.00033477737 -0.0037477491 -0.09934561
0003b0 cf 85 48 3d b0 73 f4 bc 71 9c 95 bd 2c e2 66 3c
       0.048955735 -0.02984032 -0.073052295 0.0140920095
0003c0 62 28 fc bd a5 ea d4 bd e5 5b cd 3c 5d 9e ab bd
       -0.1231239 -0.103963174 0.025068233 -0.08379815
0003d0 64 f3 10 be d4 62 a1 bd 23 28 75 bd 85 15 fe bd
       -0.14155346 -0.07880178 -0.05985273 -0.12406448
0003e0 ca 1f 38 bb a4 6e 89 bb fb 00 f0 3c 1a f3 f8 bc
       -0.002809512 -0.0041940976 0.029297343 -0.030389357
0003f0 ae 2a d9 bd c2 87 b5 bd 99 01 e2 bd 11 a1 5d 3d
       -0.10603844 -0.088637844 -0.11035461 0.054108683

fc2.bias f4 [64]
000000 2e bc 24 bd 2e 2d e7 bc 1e 3e 5e 3c c4 ba d1 bc
       -0.040218525 -0.028219786 0.013564615 -0.025601752
000010 8b be 01 3d 30 ed 98 bd 24 60 bd bd 98 f6 63 bb
       0.031675857 -0.07467115 -0.09246853 -0.0034784433
000020 04 1d 0e 3c a7 e3 87 bb 8a ab 08 40 d1 f2 d3 3f
       0.00867391 -0.0041470113 2.13547 1.6558477
000030 b4 5d 6e 3c e5 82 9d bd bd 9c af 3d e0 fe c6 3a
       0.014548708 -0.07690982 0.08574817 0.001518216
000040 e0 49 61 bd d5 3d c9 bd 33 85 ef bd 98 f5 bf be
       -0.055002093 -0.09826247 -0.116953276 -0.3749206
000050 73 a5 03 bd c4 ea 29 bd cf 0a ea bf f6 13 9f bd
       -0.032140207 -0.041483656 -1.8284549 -0.07767479
000060 e9 80 92 40 bc f6 99 3f b2 a0 87 bd 54 45 0d be
       4.578236 1.2028422 -0.06622447 -0.13795978
000070 d8 f2 ad bd c8 59 36 be d6 7e b5 3e 2e d6 cc 3f
       -0.084935844 -0.17807686 0.3544833 1.6002862
000080 19 03 88 bd 98 48 b4 bc 73 7e bf bb 29 25 ba bc
       -0.06641216 -0.022007272 -0.0058439313 -0.022722797
000090 92 12 2c 40 fd 89 ee bf d3 54 2c 3d b0 60 f2 3f
       2.6886334 -1.8635861 0.042073082 1.8935757
0000a0 a4 4d b1 bd f9 50 96 3f 45 a3 b0 bd 11 99 6a c0
       -0.08657387 1.1743461 -0.08624891 -3.6655924
0000b0 cf 34 4f bf a1 4b 9c bd 5f 1b ec 3c e1 b0 52 bd
       -0.80939955 -0.076316126 0.028821645 -0.051438216
0000c0 39 5c 90 c0 31 8a db c0 03 4a 81 bd f3 2c 51 c0
       -4.5112576 -6.860619 -0.06312945 -3.2683685
0000d0 e2 96 22 40 e9 98 90 bf 90 12 f0 bb 39 b7 48 bd
       2.5404592 -1.1296664 -0.0073264316 -0.04900286
0000e0 03 3b 5e 40 ce 37 d6 bd fe eb 00 40 ed cc cd c0
       3.4723518 -0.10459863 2.0144038 -6.4312654
0000f0 66 e8 a0 3e c7 73 a1 3c db 8a ad c0 2b 80 79 3f
       0.31427306 0.019708527 -5.4232 0.97461194

fc3.weight f4 [32, 64]
000000 6d c7 89 bd 58 7f f5 3d 57 fb 71 bd d2 da b7 3d
       -0.067274906 0.119871795 -0.059077587 0.089772835
000010 23 12 f1 3d c8 67 95 3d f4 e2 c0 bd db 2e a0 3c
       0.117710374 0.07295185 -0.09418288 0.019553592
000020 ba 9d 34 3d 54 a3 eb bd da 3b 45 3e 47 5b 2b 3e
       0.044095732 -0.11505762 0.19261113 0.16734038
000030 9d d1 e6 bd 1b 1f f7 3d e3 94 83 3d 2f 8c be bd
       -0.11270449 0.1206648 0.06424882 -0.09304082
000040 e2 0c 7b bc de 59 48 3c 41 38 2b 3d 7b 26 2a bb
       -0.015322896 0.012228457 0.041801695 -0.0025962878
000050 8c 7f 2e 3c e9 6d fc bd f0 59 81 bd fa 4e dc 3b
       0.010650527 -0.12325651 -0.06315982 0.006723282
000060 b2 d1 c1 3c 64 3c e9 be 0f 28 b3 3d 40 ea 3a 3c
       0.02365956 -0.45553887 0.08747875 0.011408389
000070 00 72 d1 3d dd 1f d0 ba 1c f4 04 bd ed 5b 1a 3b
       0.10226822 -0.0015878637 -0.032459363 0.0023553327
000080 bf 69 a8 3d 8a 0a 91 3c f8 25 8e bd 98 39 ed bc
       0.082232945 0.01770522 -0.06940836 -0.028958127
000090 ba d4 13 3d cc 2c 35 bd cd db 9d 3d ab d4 ad 3e
       0.036091544 -0.044232175 0.07707939 0.33951315
0000a0 94 52 a0 bc 87 41 8f 3b 21 ca cf bd 58 0a e5 bd
       -0.019570626 0.004371825 -0.10145975 -0.111836135
0000b0 aa ee 34 3d a8 d0 9d 3d ce 00 fd 3d b8 aa 06 3d
       0.04417292 0.07705814 0.12353669 0.032877654
0000c0 4e 6b 1f 3e d5 75 bc bc e4 a3 a9 3d c8 40 13 3c
       0.15568277 -0.023005405 0.08283213 0.008987613
0000d0 e3 04 f0 3d ee 38 c3 3c 9b d5 a5 bc 55 7a 18 3d
       0.11719682 0.023830857 -0.020243457 0.03722604
0000e0 f9 a7 9c 3b 49 7d 68 bd 27 48 4f 3d 7c 21 0a be
       0.004780766 -0.056760106 0.05060592 -0.13489336
0000f0 d0 11 0c 3d 41 b9 a1 3d 67 67 53 bd bf 5c 9d 3c
       0.034196675 0.078966625 -0.051612284 0.019209264
000100 00 09 f5 3b 09 79 ad bd 70 59 3b bd e6 e2 c8 3d
       0.0074778795 -0.08470351 -0.04573959 0.098089024
000110 47 da d8 bd 27 26 63 3d d0 0b 89 3c 18 d3 5b bb
       -0.10588508 0.055456307 0.016729265 -0.003354257
000120 95 d8 16 3c 78 c6 67 bd 8e 60 cb bd 7e 84 2e be
       0.009206911 -0.05658576 -0.09930526 -0.1704273
000130 99 5d 1f 3d 14 b7 47 bd 26 ed 31 bd 38 c2 35 3d
       0.03890762 -0.04875858 -0.043439053 0.044374675
000140 80 93 c6 bd 86 c5 13 bb 58 2f 0a 3d 63 16 31 ba
       -0.09696102 -0.0022548153 0.033736557 -0.000675535
000150 c4 76 cb bc 06 b6 77 3d f6 8b fb bd 02 34 92 3d
       -0.024836905 0.060476325 -0.12282555 0.07138826
000160 0f a3 10 be 0c be 56 bd 82 67 97 3d 1c a4 d2 3d
       -0.14124702 -0.052427337 0.073927894 0.10285208
000170 f0 56 5e bd e0 5e 41 bd 20 46 d6 bd b2 62 9f bc
       -0.05428213 -0.04720962 -0.10462594 -0.019456241
000180 f7 6c 85 3c 43 84 e8 3b 44 13 08 be 7e 4c f9 bd
       0.01628731 0.007095845 -0.13288599 -0.12172793
000190 c3 8d bc bd fd 64 06 be 0d c5 55 bd cc b1 c3 bd
       -0.092067264 -0.13124461 -0.052189875 -0.095553964
0001a0 43 d1 ca 3d a9 7b 6f bd b5 4e 1f 3d 0c 6b f6 bd
       0.09903195 -0.05846754 0.03889342 -0.12032136
0001b0 ee 98 6a bd 50 50 1a 3c ca 17 ff bd 7a 24 e6 bd
       -0.05727475 0.009418562 -0.12455709 -0.11237426
0001c0 6e 3c ca bd 37 1a 72 bd 38 ef 99 3d 23 43 e9 bb
       -0.09874807 -0.05910703 0.075163305 -0.007118599
0001d0 cf 37 a9 bd ce 1c 63 bd 35 41 38 bd 3c 8f 67 3d
       -0.08262598 -0.055447392 -0.04498406 0.056533083
0001e0 99 f3 27 bd 1c 2f 3d bd 6f ad 04 be 9b 7f 88 bd
       -0.041003797 -0.046187505 -0.12956785 -0.06664964
0001f0 71 fa bf bc 12 5d a3 3a 47 6b f2 3b fa 35 90 bd
       -0.02343485 0.001246365 0.0073980424 -0.07041545
000200 b0 e6 ee 3d 94 65 a9 bd 90 d6 32 bc 74 3b a2 bd
       0.11665094 -0.082713276 -0.0109154135 -0.07921496
000210 08 7a e7 bc c0 2a fd 3b 22 fc b3 bd 08 ed 8f 3c
       -0.028256431 0.0077260435 -0.08788325 0.01756908
000220 0c ce 88 bd 44 13 59 3d 2b 9e 08 be 85 56 2a be
       -0.06679925 0.05299689 -0.13341586 -0.16634567
000230 00 45 fd ba 68 6e a4 3c ef e1 2a bd fe e5 be bd
       -0.0019322932 0.020072177 -0.041719373 -0.09321211
000240 88 cc eb bc 72 41 9c 3d 76 7b e1 bd 84 fe 12 bd
       -0.028784052 0.0762967 -0.110098764 -0.035887256
000250 f8 ab b0 3d 58 9d 70 3d b2 7f e9 bd f8 26 f6 bd
       0.086265504 0.058743805 -0.11401309 -0.120191514
000260 bc bd 6c bb 1b 3d a6 bd c4 3f 95 bd 38 bb 13 bd
       -0.0036123833 -0.08117124 -0.07287553 -0.036067218
000270 00 c1 4a bb 5e 68 00 bd 7e 76 a6 bd 3e 18 98 3c
       -0.003093779 -0.031349532 -0.08128069 0.018566247
000280 4a e4 f8 bd 78 a0 ea bc 9d 29 78 bd 58 71 a3 bc
       -0.12152918 -0.02864097 -0.06058656 -0.019951507
000290 62 7e f1 bd ff 5b 0f be ea e0 a3 bd 45 80 b8 3b
       -0.11791684 -0.13999937 -0.08001883 0.0056305253
0002a0 e0 90 bc bc e2 eb 36 be f8 c9 a0 3d 56 c0 5b bd
       -0.0230183 -0.1786342 0.078510225 -0.053650223
0002b0 67 ab fe bd fa 0d fd 3d 44 18 a3 3d 90 9a 5c 3d
       -0.12435036 0.123561814 0.07963613 0.05385834
0002c0 00 24 55 39 70 92 27 be 58 e2 c6 bd ea 67 0c 3d
       0.00020326674 -0.16364455 -0.097111404 0.034278788
0002d0 74 c8 ff 3d 69 4f 5b bd 70 b7 85 bc 00 3a 82 3c
       0.12489405 -0.05354253 -0.016322821 0.015896797
0002e0 01 49 29 3c a0 aa 3b bd 8c 59 95 bb 02 0e 12 be
       0.010332347 -0.045817018 -0.004557794 -0.14263156
0002f0 c4 6e 2e be 96 aa 9c 3d 89 58 ef bd 1d 12 0e bd
       -0.17034441 0.07649724 -0.116868086 -0.034685243
000300 08 3a e6 3c 5a 4d 0d 3b d0 6c c6 bd 5c a4 31 3d
       0.028103843 0.0021560998 -0.09688723 0.043369636
000310 99 8f ce 3d de b4 32 3b ae 17 f9 3d 9f 4c 85 bd
       0.10085983 0.002726845 0.1216272 -0.06508755
000320 8f ac dd 3c d3 6a ea 3d 23 1d a2 bf f2 35 37 c0
       0.027059821 0.11446156 -1.2665142 -2.8626676
000330 2c f7 fd bd 94 42 8c bd ab cc 59 be 38 ee 9b 3d
       -0.1240066 -0.06848636 -0.21269481 0.07613796
000340 e4 60 14 bd 20 00 ed bd f2 9e cb bd ed 52 95 be
       -0.036225215 -0.115722895 -0.09942426 -0.2916483
000350 a7 78 e6 3d 07 1e ab bc 2b 4f 20 bf ca fe b2 3d
       0.11253481 -0.020888342 -0.626208 0.087400034
000360 74 f2 91 3d d1 1b 41 bd 9c 11 4e 3d 90 59 b3 bd
       0.071263224 -0.04714567 0.050309762 -0.08757317
000370 0c bd 66 bd 79 a6 11 3e c4 2c 2b bf 90 37 62 3e
       -0.056332633 0.1422366 -0.6686518 0.22091508
000380 7c 05 b9 bd 0c 89 93 3d 76 41 bd bf 80 ba 9a bc
       -0.09034249 0.07203874 -1.4785602 -0.018887758
000390 24 d8 82 bc be 2e 2d 3d fb ef 64 bd 7d f6 1d be
       -0.015972205 0.042280905 -0.055892926 -0.15426059
0003a0 86 1b c2 3d 52 17 b3 3e 3a 69 82 3d 69 88 c1 3d
       0.09477906 0.3497873 0.063677266 0.09449846
0003b0 39 b0 b7 bf 5c d6 a6 bc 6e 53 fe 3d 60 92 21 3d
       -1.4350654 -0.020365886 0.12418257 0.039446235
0003c0 31 f5 49 bf 75 72 d7 be a0 f5 e3 3d 35 e7 ae bf
       -0.7888976 -0.4207951 0.111308336 -1.3664309
0003d0 96 b3 cc be 86 f5 bd 3e fd cd 06 3d 20 7d 17 3d
       -0.39980763 0.37101382 0.03291129 0.036984563
0003e0 6f cc a1 3e d3 25 d7 bd 09 48 04 3c 7d 32 6a 3d
       0.31601283 -0.10505261 0.008073815 0.057177056
0003f0 0c 4d 88 bf 8b a6 e3 3d 75 d0 1a bf 43 d2 1b bf
       -1.0648513 0.1111575 -0.6047433 -0.6086771

fc3.bias f4 [32]
000000 39 8a 99 be 39 d5 e7 3c 31 64 15 be 24 03 d4 bf
       -0.29988268 0.028299915 -0.14589001 -1.6563458
000010 72 12 41 3e 2a f6 9c 3c 6a 80 21 be 60 53 bf be
       0.18854693 0.019160349 -0.15771642 -0.37368298
000020 61 46 db bb 4a 76 fe 3d a8 97 e6 bc 95 d5 9b 3a
       -0.0066917394 0.124249056 -0.028148487 0.0011889214
000030 8b 8d 7f 3e 55 6c 9d be b8 08 a7 bf e1 6b 32 3f
       0.24956338 -0.30746713 -1.3049536 0.6969586
000040 1c 52 e9 bd 12 d8 93 3e 20 9f 1e 3f 57 f2 3f 3f
       -0.11392614 0.28875786 0.61961555 0.74979156
000050 94 bc 5b be e2 59 35 be 34 28 27 be d3 f2 bb ba
       -0.21458656 -0.17710069 -0.1632393 -0.0014339335
000060 e2 18 11 bd 58 30 c8 bf 6f ed 51 bf ae 80 c4 3f
       -0.03542412 -1.5639753 -0.8200292 1.535177
000070 01 a6 ec 3d 0e 9a 4a be 1d 62 a9 3d 47 56 da be
       0.115551 -0.1978533 0.08270667 -0.4264395

fc4.weight f4 [16, 32]
000000 ca 13 e1 bb 35 34 27 3e ca 7c e6 3c dc c5 02 c0
       -0.006868814 0.16328509 0.028135676 -2.0433264
000010 64 fb 86 bb 57 89 31 bd a4 3e 10 3e 1a d9 9a 3d
       -0.0041193236 -0.043343868 0.14086396 0.0756094
000020 a7 ef 05 3e e3 c9 80 bd 62 09 66 be 60 0d ba 3d
       0.13079701 -0.06288507 -0.22464517 0.09084582
000030 e1 13 ac 3c 1d d5 29 3e 48 9b 5e bd 37 2c b2 3d
       0.021005573 0.16585203 -0.054347306 0.086998396
000040 b5 52 c4 3d f2 64 7f bc 7b da 8d 3e 0c 5f 21 3e
       0.095860876 -0.015588032 0.2770575 0.15758914
000050 1a 6d e4 3d 4c 3b 10 be 90 12 b6 bd 1f af 68 3b
       0.11153622 -0.1408512 -0.08890259 0.003550477
000060 56 b1 e9 bd 2d 65 7a 3d 93 8f 88 3c fc 2c b5 3c
       -0.11410777 0.061131645 0.016670024 0.022116177
000070 2c 54 58 be 11 46 c2 3c bc 27 88 bc 8f 5d df 3b
       -0.21125859 0.02371505 -0.01662051 0.006816573
000080 ce 3d a8 be 91 91 1f bd 03 f9 d6 bd 22 33 81 3e
       -0.32859653 -0.038957182 -0.10496714 0.25234324
000090 12 10 d1 bc 64 6e 16 3d ef d7 04 3e fe 9f 07 3d
       -0.025520358 0.03672637 0.12972997 0.033111565
0000a0 9d f5 cd 3d c8 83 bd bd 04 7d 9b 3d 6b e9 39 3b
       0.10056613 -0.09253651 0.07592204 0.0028367888
0000b0 93 bc 5d 3d 34 2d 9c bd 5c 1e 2c bd aa fa 30 bc
       0.054134917 -0.07625809 -0.04202114 -0.0108019505
0000c0 a9 11 1b be 62 83 ca 3c 6e 4c e7 bb 55 ed 83 3c
       -0.15143456 0.024720851 -0.0070586717 0.01610438
0000d0 6e 3f 09 3e a1 6e 90 bc e0 91 41 3c 08 52 89 3d
       0.13403103 -0.017630877 0.0118145645 0.06705099
0000e0 b9 18 02 be 3d b1 fd 3d ac 35 a0 3d 65 f5 e6 bd
       -0.12704743 0.12387321 0.07822737 -0.11277274
0000f0 d0 25 9f 3c bd 47 e7 bd b0 40 5f 3c 19 46 2a ba
       0.01942721 -0.1129298 0.013626263 -0.0006495431
000100 5a 9d 55 bd 00 49 08 be 16 58 76 3c db a3 0d bd
       -0.052152015 -0.13309097 0.01503565 -0.034580093
000110 7e 74 21 3c 8f 92 b3 bd b7 a5 07 bd a9 59 5f bd
       0.009854434 -0.08768188 -0.033117022 -0.054528866
000120 b9 b9 c9 3d 32 ec 32 3e 9b 26 24 3c b1 8f 37 3c
       0.09849877 0.17472914 0.01001897 0.011203692
000130 c4 54 65 3c 1b 2e 05 be 45 9a 27 bd 59 c4 3d 3c
       0.0139972605 -0.13005869 -0.040918607 0.011582457
000140 02 76 a9 bd 09 86 4c 3d cb b7 30 bc 24 88 d4 3c
       -0.08274461 0.049932513 -0.010786007 0.025943823
000150 75 b9 af 3d 25 b4 c0 3d bb e4 9f 3c 11 c0 f0 3c
       0.08580295 0.0940936 0.019518247 0.02938846
000160 6a 8d 33 3e 08 66 90 3d ed f9 a3 3c d4 22 64 bd
       0.17534414 0.07050711 0.020016635 -0.055697277
000170 6f e6 85 bd ec 58 9f 3d 60 8a d9 3d 3f a6 4b 3e
       -0.06538092 0.077806324 0.10622096 0.19887637
000180 5a 40 68 3b a0 76 32 3d 2d 2d 2a 3d 1f c6 49 c0
       0.0035438747 0.04357016 0.04154699 -3.1527174
000190 76 65 00 bb 28 93 92 bd 57 fb 90 3d f7 b3 8d 3e
       -0.0019591725 -0.07156974 0.07079189 0.27676365
0001a0 79 43 14 be 2d 6b 3c 3d ee 1e 3c 3d 2f a4 88 3d
       -0.14478864 0.04600065 0.045927934 0.066719405
0001b0 a1 f2 59 3d 25 65 4e 3e 68 8b 24 3e fe d1 ba bc
       0.053209905 0.20155771 0.16068804 -0.02280521
0001c0 bc 3e 11 be dd d0 1f bb 94 d1 2b bd 2a f4 6e 3e
       -0.14184088 -0.0024385967 -0.041947916 0.23335329
0001d0 18 5d 82 3d 7f c8 d4 3d 60 b5 a6 3c d2 49 1c bd
       0.063654125 0.10389804 0.020350158 -0.038156338
0001e0 fd 8a 63 bd 24 1f 93 bd c2 2c 83 bd 41 10 6b 3e
       -0.05555247 -0.07183674 -0.06405021 0.22955419
0001f0 50 d1 88 be 3c 58 01 be 24 17 24 3c ac 14 79 bd
       -0.26722193 -0.12631315 0.010015283 -0.06081073
000200 2b 18 2b 3d 62 58 05 3e ae 87 c4 bb 0d 5e 50 3e
       0.041771095 0.13021997 -0.0059976196 0.20348378
000210 0f 17 4c 3b 4b 90 3e 3d 94 43 9b bd 70 cd fc 3c
       0.0031141674 0.046524327 -0.07581249 0.030859679
000220 8b 08 b3 bd ef 05 80 bc 3e 9b e8 bb 09 cf 14 3e
       -0.08741864 -0.01562783 -0.0070985844 0.14532103
000230 a3 42 e6 ba d7 f1 42 3d 2a b7 40 3c 78 87 3b 3a
       -0.0017567467 0.047593918 0.01176242 0.00071536703
000240 4f db 85 3d b2 3c 31 bd 93 5d 4a bb 42 57 72 3a
       0.065359704 -0.043270774 -0.0030878528 0.000924457
000250 6d ea d4 3d 77 5e 2c bd 2c 78 96 39 4b 7b af 3e
       0.10396276 -0.042082276 0.00028699765 0.34273753
000260 5c 3f db 3c 5a 97 aa 3b 73 6c 83 bc 95 00 bd 3c
       0.02676361 0.005206031 -0.016042924 0.023071567
000270 a8 51 d1 bc 98 07 39 bc 41 dc 20 3d be 49 55 bc
       -0.025551632 -0.011293314 0.03927255 -0.01301807
000280 dc a0 9a bd 2f 06 f1 3c 88 b7 d6 bd 82 60 8c bf
       -0.07550213 0.029421894 -0.104842246 -1.0966952
000290 a3 3e ed 3b 32 0c 05 3d 02 68 8c 3d 12 03 0d 3c
       0.007240133 0.032482333 0.068557754 0.008606689
0002a0 9b cc ad 3d d3 95 a4 3d b5 83 5c bd 14 2f c5 bd
       0.08486291 0.08036389 -0.053836543 -0.0962812
0002b0 ff 3e b0 3b fe dd 81 bd 3e e1 35 bd c3 d1 15 3c
       0.0053786035 -0.0634117 -0.04440426 0.009144249
0002c0 5f 92 e3 bd 15 14 ef bb 79 df 50 3d 4a 66 83 be
       -0.111119024 -0.007296095 0.05099437 -0.25663978
0002d0 65 80 a6 b9 73 c7 b4 bc eb 1d 77 bc 16 2f 54 3c
       -0.0003175765 -0.022067761 -0.015082817 0.012950679
0002e0 e2 c2 9b 3d cb 74 1c be 63 6b f7 bc ec cf 95 3d
       0.0760553 -0.15278928 -0.030202573 0.073150486
0002f0 20 3d 6d 3e f2 72 24 3e c0 35 aa 3c 62 62 32 be
       0.23167849 0.16059473 0.020777583 -0.17420343
000300 fd 4e 2e bd 1e 7a ea bd 54 ec 8d 3d 23 2a 16 be
       -0.042555798 -0.11449073 0.06929842 -0.14664511
000310 cf 6a 12 be 23 4a 63 bc 58 95 15 bd d1 a5 2d be
       -0.14298557 -0.013872656 -0.03651938 -0.16957785
000320 f4 0b b1 bd e9 a9 2e be 6b 82 f5 3c 44 88 09 be
       -0.08644858 -0.17057003 0.029969415 -0.13430887
000330 39 7d 94 bd bd e4 99 bd 94 5e 5d be e4 f6 6f bd
       -0.07250447 -0.075143315 -0.2161811 -0.058585063
000340 89 91 d2 3c d6 0f 98 bd ee 9f 26 be 72 7e 49 3d
       0.025704162 -0.074248955 -0.16271946 0.049192853
000350 d0 a6 2c be 18 69 5f 3c c8 f6 20 be 9a 16 26 be
       -0.16860509 0.013635896 -0.1571914 -0.1621956
000360 38 bc 64 3b 33 6b 53 3d a9 02 ab 3c 0d c2 ff bd
       0.0034902226 0.051615905 0.020875292 -0.12488184
000370 f5 e1 3a be 90 32 62 3c 14 4e 65 3d a7 7e 1c be
       -0.18250258 0.013806 0.055982664 -0.15282689
000380 b5 7e a1 bc ef a6 aa 3c 0d 0f ba 3d 85 20 cf be
       -0.019713739 0.020831553 0.09084902 -0.40454498
000390 58 5c b2 3a 67 16 09 be 9b 16 48 3d 99 ed da 3c
       0.0013607843 -0.13387452 0.048849683 0.026724624
0003a0 b0 1a 97 3d 52 6a 10 be 18 af da 3c 9b 4c 00 be
       0.07378137 -0.14103058 0.02669482 -0.12529223
0003b0 18 f1 9b be c9 ab 23 bd ff 62 91 3c 1b 3c c6 bc
       -0.30457377 -0.03995875 0.0177474 -0.024198582
0003c0 67 b7 cd 3d da 00 28 3d 60 6c 7f bc 25 1b b9 bd
       0.10044747 0.041016437 -0.015589803 -0.090383805
0003d0 b4 fd c1 3d a0 18 1a be dd 44 3e bb 0a c4 69 3b
       0.09472218 -0.15048456 -0.0029032745 0.0035669827
0003e0 c9 23 86 be 72 12 7c 3d 1e c4 07 bc 7f 6a d6 3b
       -0.26199177 0.06154103 -0.008286504 0.006543457
0003f0 de b9 d1 bd 73 26 d0 bd d1 9f 09 3e f5 75 ab 3d
       -0.102405295 -0.101635836 0.13439871 0.08372108

fc4.bias f4 [16]
000000 ac 54 00 3e a4 2d 67 3e d5 06 b6 bd c8 23 16 3e
       0.125323 0.22576004 -0.08888022 0.14662087
000010 91 5a bf bc 66 63 90 3d 04 da 40 be 56 9a b4 3e
       -0.023358615 0.07050209 -0.18833166 0.35274
000020 6f b0 57 be 51 69 9a be c0 93 ae bb 22 7e 2d be
       -0.21063398 -0.30158475 -0.0053276718 -0.16942647
000030 41 a2 67 3d 26 8e 04 3e ce a8 91 be 65 11 83 3d
       0.05655122 0.1294485 -0.284491 0.06399802

fc5.weight f4 [37, 16]
000000 e7 3a ad 3b a7 8b 2e be 49 8b 52 bd 6c ae 51 bd
       0.0052865627 -0.1704546 -0.051402364 -0.051191732
000010 c3 cd c7 3d 57 fa c5 3c f3 c7 48 3b 8d 2b 20 3e
       0.09756043 0.024167223 0.0030636757 0.15641613
000020 c8 ab 43 bc 41 b8 7f 3c 79 94 ed ba 15 36 ca bd
       -0.011942811 0.015607894 -0.0018125913 -0.098735966
000030 ee 4c 25 bd 08 d0 40 3e 63 19 e2 3d 5e c8 6d be
       -0.04035657 0.18829358 0.110399984 -0.23220965
000040 a2 7b 29 bc d2 2a 2f 3d a5 69 80 bd 8a a7 88 bc
       -0.010344418 0.042765446 -0.0627015 -0.016681451
000050 8d 4d 07 3d 0d be 2d bd 33 a1 4b 3e b2 9f b0 3d
       0.033032943 -0.042417575 0.19885711 0.086242095
000060 29 e3 c6 3c 03 d1 a2 be 36 26 89 3b 9f da 65 be
       0.02427824 -0.31800088 0.0041854633 -0.22446679
000070 03 3d 79 3d 2e 4b 77 3e 3b c9 c9 bc 9d 09 d1 be
       0.0608492 0.24149773 -0.024632087 -0.40827647
000080 2c eb 4e bc eb fa d2 3d 30 70 ab bc 43 b2 22 b9
       -0.0126293115 0.10301765 -0.020927519 -0.00015515932
000090 34 b4 1d bd a7 2f 4a ba 2f 6c 53 3e 61 a4 d9 bc
       -0.038501933 -0.0007712789 0.20646738 -0.02656764
0000a0 c4 92 54 3c a6 ae 2f be fc 61 69 3c dd c6 73 3d
       0.012974445 -0.17156467 0.014244553 0.059515823
0000b0 20 61 07 3e 9d 68 29 3e 45 bc 52 bd dc f9 c9 be
       0.13220644 0.16543813 -0.05144908 -0.3944844
0000c0 dd b7 50 bb 28 97 d1 3c 16 3d ce 3c fe db 84 bc
       -0.0031847872 0.025584772 0.025175612 -0.016218182
0000d0 9a 6d 17 be 65 d3 12 3d 2f 7d b2 3d 70 8d 28 be
       -0.14787903 0.035846133 0.08715283 -0.16460204
0000e0 99 f7 96 bb f4 29 b3 bd d0 b6 7a 3c 55 5d 59 bc
       -0.0046071527 -0.08748236 0.015302375 -0.013266881
0000f0 f9 43 42 3e ac 56 36 3d 89 85 98 bc c8 6e 98 be
       0.18971242 0.04451625 -0.018618362 -0.2977202
000100 db 3a 95 3b b6 f6 32 bd db 28 0f 3d d9 07 eb bc
       0.0045541353 -0.043692313 0.034951072 -0.028690265
000110 69 c0 73 be 05 4e b3 3c b2 f8 65 be 88 1a 1a be
       -0.23803867 0.021887789 -0.22458151 -0.15049183
000120 71 80 20 bc de 8e 13 be 5b 6e e0 3b 3b 7a 52 3e
       -0.009796248 -0.14409968 0.006849093 0.2055444
000130 9d ee 44 3e d3 e8 44 bc f2 de 29 3a 92 db 67 be
       0.19231649 -0.0120184 0.000648006 -0.22642353
000140 e2 70 3f 3c 8d 99 db bd 02 cd cc 3c 48 a3 18 bd
       0.011684628 -0.10722647 0.0250001 -0.037265092
000150 d2 d7 a9 be 90 2b f9 bc b2 09 3f be 09 f9 55 bd
       -0.3317247 -0.03041628 -0.18656042 -0.05223945
000160 9f 52 3b bc 2a a2 12 3e 55 15 73 ba 91 6f 4e 3e
       -0.011433273 0.14319673 -0.0009272893 0.20159747
000170 44 a0 28 3e 83 42 18 bd ad ed 0e bd a8 ed 0b be
       0.16467386 -0.037172806 -0.034894634 -0.13664877
000180 08 3f 26 3c ca ac dc bd bf 5f 58 3c 3e a3 02 bd
       0.010146864 -0.107751444 0.013206421 -0.03189396
000190 aa e9 ce be 69 34 03 bc b4 5c 04 be 52 4e ab 3d
       -0.40412647 -0.008008101 -0.12925988 0.08364548
0001a0 7b 82 3f 3c 08 5c 2e 3d 0c 88 9b 3b 18 45 02 3e
       0.011688824 0.042568237 0.0047464427 0.1272167
0001b0 a7 43 87 3d 0b 73 2d 3d 93 1b 00 bd 61 4a 23 3d
       0.066047005 0.04234604 -0.031276297 0.039865855
0001c0 92 6a 89 3c 10 cd 30 3d 11 6f 62 3c 56 ba 26 3a
       0.01677445 0.043164313 0.013820426 0.00063601637
0001d0 77 1f c4 be 6a 03 92 bd 3b ed ed 3d 1e 92 38 3e
       -0.38305256 -0.071295574 0.11617514 0.1802449
0001e0 5b e6 dd 3c 3d d4 1d bd 39 2f d7 ba 4c 47 c0 3d
       0.027087381 -0.038532484 -0.0016417272 0.09388599
0001f0 8a d1 72 bb 51 b0 0e 3e fe 93 12 be 38 82 b2 3d
       -0.0037051165 0.13934447 -0.14314267 0.087162435
000200 38 4c 64 3b d6 0b 11 3e ec d4 c4 3d ef 7b 15 bc
       0.003483547 0.14164671 0.09610924 -0.009123786
000210 c7 6d 9a be e6 3d bb 3d 0c 8e 35 be 9f ce f2 3d
       -0.30161878 0.091426656 -0.17729968 0.11855816
000220 aa 75 d3 3c 6e 44 f9 3d 13 29 39 3b 4e a4 73 3d
       0.025812943 0.12171255 0.0028253242 0.059482865
000230 fc 87 03 bd 1a d4 a9 3e 29 02 9a bd fc 46 1d 3e
       -0.032112107 0.33169633 -0.07519943 0.1535911
000240 36 ce 3d bc fd aa b7 3c 1a b2 fa 3d a2 54 a3 bd
       -0.011584809 0.0224204 0.122410014 -0.07975127
000250 ad d5 05 be f4 ce 11 3e 11 3a 5b be ae 19 1d bd
       -0.13069792 0.14239103 -0.2140887 -0.03835457
000260 5b 49 99 3c e5 7f 46 be 44 2d a0 3b 63 7c b2 be
       0.018711736 -0.19384725 0.0048882086 -0.34860525
000270 2d 0a 2a 3b cb 40 ab 3e 96 96 50 3d 03 4b 2c 3e
       0.0025946007 0.3344787 0.05092486 0.1682549
000280 84 f3 9a 3c 27 a6 f2 39 c6 0a 37 3e 3f 28 bc bd
       0.018914945 0.0004628163 0.17875203 -0.09187364
000290 73 b7 94 bd ee 23 51 be 93 b0 be bd 2b 30 d5 bd
       -0.07261553 -0.20423862 -0.093110226 -0.10409578
0002a0 d7 f9 e0 3c 67 7d 1a bd 9a 26 5d 3c 02 05 f2 bd
       0.027462883 -0.03771725 0.013497973 -0.118173614
0002b0 15 ef 53 3b 0d b8 b6 3e 7d 45 4f 3d 15 12 26 3e
       0.003233855 0.35687295 0.05060338 0.16217835
0002c0 37 e8 79 3d af ad 36 bd 06 df 97 3e e8 37 20 3b
       0.061012473 -0.04459923 0.2966234 0.0024447385
0002d0 0c 99 67 bd 24 59 58 be ee 44 47 3e 4a 32 eb bd
       -0.05654244 -0.21127754 0.19459888 -0.11484201
0002e0 48 a3 12 bd bc cf 85 be 9c b9 b2 3c 7f 7e 2e bd
       -0.03580025 -0.2613505 0.021817021 -0.042601105
0002f0 01 38 4d bd ff 4e 9c 3e bd b6 3b 3d 08 12 d3 3d
       -0.050102238 0.3052902 0.04582857 0.103061736
000300 46 bb 8c 3d 93 2d 92 bd 38 de b7 3e f2 32 df 3d
       0.06871657 -0.07137599 0.35911727 0.10898389
000310 d0 9f 61 bd d5 a6 17 bc ef 2a de bd 38 f4 91 bd
       -0.05508405 -0.009256084 -0.10848033 -0.07126659
000320 26 fd ba bd e8 5e 30 bd b2 7b 3b 3c 12 83 91 3d
       -0.091303155 -0.04305926 0.0114430655 0.07105078
000330 b7 a0 fa bd 93 9b 25 3e 30 67 92 bc 40 19 83 bb
       -0.12237685 0.16172628 -0.01787147 -0.004000813
000340 ae 61 94 3c 01 c9 87 bd 01 d9 a9 3e 18 7f 21 3e
       0.018112984 -0.06630135 0.33173373 0.15771139
000350 4f 2c 8b bd 63 2f 23 3d 39 00 a2 3d ae 21 1a bd
       -0.067955606 0.039840113 0.07910199 -0.037629776
000360 05 75 21 bd dc 4e ff bd f9 35 d7 bb b1 b2 69 3e
       -0.03941824 -0.12466213 -0.0065677133 0.22822072
000370 1b 74 4a be e3 ff c6 3c 04 86 ac 3d c7 c2 c3 bd
       -0.19770853 0.024291938 0.08423999 -0.09558635
000380 bc 77 3a bd 29 13 09 bd 0e 70 12 3e 46 94 12 3e
       -0.045524344 -0.03346554 0.14300558 0.14314374
000390 e3 a6 9c bd e4 d7 e6 bd 79 15 9a 3d dc 76 50 bd
       -0.076490186 -0.112716466 0.07523627 -0.050894603
0003a0 d9 27 fe 3d 93 df f0 bd 8f 4c 15 bd 3d a3 02 3d
       0.12409944 -0.117613934 -0.036449965 0.031893957
0003b0 a1 1b 5c be 5a d0 67 bd 23 af 5d 3e b9 56 fe bd
       -0.21494915 -0.056595184 0.2164884 -0.12418885
0003c0 a6 ba 86 bd dd 7b c3 bc f0 53 82 bd 15 a6 11 3e
       -0.06578569 -0.023862774 -0.06363666 0.14223512
0003d0 0b 75 ab bd 92 4c 5d be 95 67 57 be 05 6e 9d bd
       -0.083719335 -0.2161124 -0.21035607 -0.07687
0003e0 e7 57 76 3e 34 16 0a 3e cb 92 6c bd c9 25 1c bc
       0.2405697 0.13485032 -0.05775718 -0.009530493
0003f0 d7 7c 50 be 04 5a 84 bd f6 b1 08 3e 97 23 e5 bd
       -0.20360123 -0.064624816 0.13349137 -0.11188429

fc5.bias f4 [37]
000000 06 b4 0c 3f f6 76 0b 3f af 3e 0a 3f 8b 17 12 3f
       0.54962194 0.54478395 0.540019 0.57067174
000010 95 4a 27 3f 87 aa 2f 3f 41 c6 20 3f 15 15 0a 3f
       0.6534818 0.6861958 0.6280251 0.5393842
000020 10 d7 a9 3e 99 bf bf 3e 34 f9 88 3e 8e 6f 51 3e
       0.33171892 0.37450865 0.26752627 0.20452711
000030 bd a2 ba 3e 44 67 07 3f 42 e7 36 3f 36 c3 49 3f
       0.36452284 0.52891946 0.7144662 0.78813493
000040 5d a8 48 3f 1e cc 45 3f 69 8d 49 3f 38 cb 54 3f
       0.783819 0.77264583 0.787314 0.8312259
000050 d9 99 5a 3f 1f f4 51 3f 28 45 48 3f ca 1c 4a 3f
       0.85391 0.82013124 0.78230524 0.7895018
000060 37 0e 46 3f 2d 69 37 3f 4b 1e 34 3f 39 15 35 3f
       0.7736544 0.7164486 0.70358723 0.7073551
000070 90 c8 2d 3f e4 ec 25 3f fe a2 1a 3f 0c 20 10 3f
       0.6788416 0.6481459 0.60404956 0.562989
000080 9f 4b 09 3f 4e 24 05 3f 90 1d 03 3f e8 a1 05 3f
       0.53631014 0.5200852 0.51216984 0.52200174
000090 03 ab 07 3f
       0.5299532
